app/models/emnist_model.onnx (onnx, 968264 bytes, 6 tensors)

1.weight f4 [256, 784]
00000000: b07d ccbb bcea 3fbc e2aa 06bd a0e4 ad3c
00000010: 089a 033c c68f fe3c 7889 ef3b 4000 493c
00000020: ee7b 67bc a65e a83c b927 0c3d 2840 d8bc
00000030: 983e ebbc 2e02 17bc c6b1 58bc ae1c f2bc
00000040: e339 f7bc 407d e8bb 8eb9 b33c e060 b2bc
00000050: e0fd b73a 08a9 313c 7cdb 3f3c d09f 10bd
00000060: ba71 b3bc 55a7 e4bc 60aa 173b 0885 ebbc
00000070: 0e59 bd3c ee46 eb3c b29c db3c 608c d33c
00000080: f829 ab3b 184a 05bd d00b 313b e4ff c7bb
00000090: a0cf 39bc 928e de3c 5c9f b4bc 0e88 c13c
000000a0: c0b5 92ba 8510 dfbc 0629 58bc 1a9e bf3c
000000b0: 2e2c 81bc dc70 6f3c 6060 97bc 4cfe 9d3c
000000c0: e0be 27bb 08d6 803c a1f6 013d 2ef0 b53c
000000d0: e3a5 d0bc 1ac5 06bd 0bb4 0a3d a7e3 113d
000000e0: ae8d e2bc 44b1 213c a821 bf3c 3ec0 f63c
000000f0: aa5a 2bbc d0bc 693c d2d1 66bc 8e26 fd3c
00000100: 8436 04bc 80e3 0fbb de70 8fbc ca67 f1bc
00000110: 7470 613c 3331 0b3d fc6c d43c c8d7 be3b
00000120: 001e 08bc d056 5ebb 00f6 5b3a 0073 bd3c
00000130: 10a5 abbc 08b9 e03b 8e20 91bc a822 433c
00000140: 14e7 593c 4e55 e4bc 4004 9bbc 8059 18ba
00000150: 0a78 03bc 6a37 acbc ce5a a33c cefe e83c
00000160: 5003 4e3c 55d7 f1bc a0f8 d9ba 3abd 853c
00000170: 2c30 97bc 60cb 2dbc 40b0 93bc fa19 f2bc
00000180: 041b 143c ae6b 8f3c 0afd cfbc 83bf cabc
00000190: b202 5fbc e0d2 943a 80c0 af3c 405f 2dbc
000001a0: e0ee 3abc ecce d2bc 529d 0abc 0fcb 0ebd
000001b0: 9ed0 00bd 3228 f23c 9489 c7bb dab9 dbbc
000001c0: e496 bdbb f88d f83b d1dd 0b3d 7825 45bc
000001d0: d8bb 51bc eea5 6cbc a1bf 103d 4c20 ae3c
000001e0: d415 c7bb 3093 ec3b 13f6 c7bc 20d5 e3bc
000001f0: 8871 183c 0e69 86bc 40b2 a93c 7428 853c
00000200: d81e f8bc 5ce6 7ebc 0084 b638 60fa a5ba
00000210: 8060 723c e476 1f3c f3a0 0f3d 1866 14bc
00000220: fc61 483c 4008 24bc b84d 5f3c 30d6 cfbb
00000230: 506b 72bb ba8e 96bc 0030 fc39 be30 c2bc
00000240: 0877 c6bb 00f5 50bc da96 0cbd d8ab a13b
00000250: 208b 26bc 60e0 04bd 7654 a33c c06a 36bc
00000260: a3d3 d3bc 5c1d b73c 941d e4bb 52fb ed3c
00000270: 4aaf 12bc 8dcc 01bd 3c6a 663c c531 dbbc
00000280: d719 013d d8a0 ecbc e09e 3bbb f0ff 883c
00000290: 402b b93c 0846 943c e6d3 fc3c 9029 623c
000002a0: 5838 9b3b 52af 42bc 5ec2 bb3c 4477 1f3c
000002b0: 89ec 043d 8449 233c ac3b 95bc 002a 4b3b
000002c0: 0038 29bb 4037 0dba f68e ab3c 82ea a33c
000002d0: ca85 a63c db5c 11bd c0f8 613c b009 76bb
000002e0: e50f bfbc 86a4 17bc a1b8 f2bc 0ab2 b0bc
000002f0: cb61 0ebd 0a88 803c a058 473b 6c24 d9bc
00000300: e061 bf3a 423d fc3c e4ab 04bd 16ff aa3c
00000310: 11a6 edbc 7545 cfbc e4b3 353c 561b d83c
00000320: 5330 91bc be29 eb3c 3ec3 10bd a07c e9ba
00000330: 0899 99bb c834 f8bc 52c1 fc3c b0a3 a2bb
00000340: 80d9 e43b 7356 0d3d 03c3 c0bc 9417 043c
00000350: 5356 86bc 5450 2f3c 5104 febc ea68 d4bc
00000360: 50a0 8e3b c056 afbb 00e2 1bbb f876 a83b
00000370: 1c9c 09bc 30f6 7ebb 578c 0a3d 8cc8 f1bc
00000380: e645 d43c 868a b13c 3804 9c3b 390c 0a3d
00000390: 8030 0d3c bc2d c63c f0e8 a03b 686f c93b
000003a0: f0ec 483b e806 f1bc 6a3c f0bc 1e0d da3c
000003b0: 23bd e2bc c8b8 7c3c e000 2dbc 40b2 d63b
000003c0: 0064 443a 166c 993c e0a3 57bc 7671 9f3c
000003d0: a038 ef3a b452 233c 58d7 aa3b 8ace a43c
000003e0: dc56 643c 3556 f5bc 6ee7 e13c 30f8 8d3c
000003f0: 53c3 babc c081 c53a acb2 ba3c 90c5 09bb
-0.006240569 -0.01171368 -0.03287781 0.021227181 0.008032329 0.031074416 0.0073100887 0.012268126
-0.014128668 0.020552944 0.03421757 -0.02639778 -0.02871637 -0.009216828 -0.013225978 -0.029554691
-0.03017897 -0.007095009 0.021939065 -0.02177471 0.0014037453 0.010843523 0.011710044 -0.03530866
-0.021904815 -0.027911821 0.0023142323 -0.028749958 0.023113754 0.028720345 0.026808117 0.025823772
0.005223509 -0.032541364 0.0027015097 -0.0061035026 -0.011341006 0.027167592 -0.022048645 0.023624446
-0.0011193082 -0.027229557 -0.0131933745 0.023390818 -0.015768137 0.01461431 -0.018478572 0.019286297
-0.0025595948 0.015727058 0.031729344 0.022209253 -0.025469726 -0.032902814 0.03386311 0.035617497
-0.027655449 0.009868924 0.023331478 0.030120965 -0.010458628 0.014266208 -0.014088111 0.030902173
-0.008069638 -0.002195567 -0.017509874 -0.029468436 0.013759721 0.033982467 0.025930874 0.005824063
-0.008307934 -0.0033926256 0.0008390844 0.023126125 -0.020952731 0.006857995 -0.017715719 0.011910118
0.013299722 -0.027872708 -0.018922925 -0.00058116764 -0.008024225 -0.021022517 0.01994076 0.028441813
0.012574032 -0.029521624 -0.0016629882 0.016325582 -0.018455587 -0.01060757 -0.018028378 -0.029553402
0.009039644 0.0175074 -0.025389213 -0.024749523 -0.013611482 0.001135435 0.021454096 -0.010581791
-0.011409491 -0.025733434 -0.00846036 -0.03486162 -0.031448953 0.029560182 -0.0060893986 -0.02682202
-0.00578581 0.0075852834 0.034147087 -0.012032859 -0.012801133 -0.014443858 0.035339 0.021255635
-0.0060756 0.0072196946 -0.02440933 -0.027811587 0.009304412 -0.016407516 0.020714879 0.016254641
-0.030288145 -0.015557852 8.703023e-05 -0.0012663119 0.014793515 0.009732936 0.035065603 -0.009057544
0.012230393 -0.010011733 0.013629369 -0.006342672 -0.0036990233 -0.018378604 0.00048100948 -0.023704883
-0.00605667 -0.012753725 -0.03432355 0.0049338154 -0.010165006 -0.032440543 0.019937735 -0.01113385
-0.025857752 0.022352867 -0.006961534 0.029050503 -0.008952925 -0.031689215 0.014063414 -0.02675713
0.031518783 -0.02888529 -0.0028628632 0.016723603 0.022603631 0.0180998 0.03086276 0.013803855
0.0047369413 -0.01188262 0.02291983 0.009733025 0.03245214 0.009966258 -0.01821693 0.0031000376
-0.0025820732 -0.0005386956 0.020942193 0.020009283 0.020327467 -0.035488945 0.013792217 -0.0037542395
-0.023323009 -0.009255534 -0.029629054 -0.02156927 -0.03476123 0.015689868 0.0030417815 -0.026506625
0.0014601313 0.030790929 -0.03239049 0.020873588 -0.02900985 -0.025301674 0.011090253 0.026380222
-0.017723238 0.028706428 -0.035342447 -0.001781363 -0.004687432 -0.030298606 0.030853901 -0.0049633607
0.006983936 0.034506273 -0.023530489 0.008062262 -0.016398584 0.010700304 -0.031007918 -0.025928933
0.004352607 -0.0053509176 -0.002378583 0.0051411353 -0.008399036 -0.0038904063 0.033825245 -0.029514574
0.025912236 0.021672498 0.004761245 0.033703063 0.00861752 0.02419173 0.004910581 0.006147314
0.0030658804 -0.029422238 -0.029325683 0.026617583 -0.027678078 0.015424915 -0.010559291 0.006552011
0.0007491708 0.018728297 -0.013161629 0.019463282 0.0018251128 0.009968448 0.0052136593 0.020118017
0.0139367245 -0.029948333 0.027576175 0.01733026 -0.022798216 0.0015068576 0.022790276 -0.0021022297

1.bias f4 [256]
00000000: 7039 b93b 38e0 79bc e7fa 0e3d 6be1 08bd
00000010: b088 973c f581 e9bc 00ea 403a 33eb e9bc
00000020: c074 2c3a d5f3 003d 0049 7bbc 306b cbbc
00000030: 832e 0e3d ec51 86bc 7c86 04bc ae35 c7bc
00000040: 400b db3a b336 fbbc 3f09 083d 40c7 233c
00000050: a4ff abbb ee19 b63c c3fe 84bc 4ca4 af3c
00000060: 6581 eabc 800e 383b e987 093d 75bb d4bc
00000070: 3013 1f3b 53f2 c5bc 680f 2b3c 704f 5f3b
00000080: faf4 99bc 6e71 e4bc faaf d4bc d00f 553c
00000090: 28c9 043c 2798 94bc 807b 67bc 3a0a f33c
000000a0: 0e84 fa3c 4ebc e7bc 2044 cc3c 51c3 eebc
000000b0: 584d 2c3c 48e9 333c bb99 0f3d ce39 f83c
000000c0: a3f6 11bd 1560 efbc 8052 60ba e66c 1bbc
000000d0: 47ae 0e3d a146 023d 2e53 10bd 42fb ce3c
000000e0: a21f ca3c 00f2 213c 7c2e b83c 0d43 023d
000000f0: 3e6c d7bc 20ce dbbc 0255 09bd 80cd 633c
00000100: 5353 b7bc 00bc 943b 1444 e1bb 6cbd 04bd
00000110: 73c8 cbbc 77f2 093d 8e25 8abc 6ae5 dfbc
00000120: 3834 3fbc fa71 b83c c532 d2bc 434f 9abc
00000130: 5cee 1dbc e0a0 523b 2812 acbc 263c 01bd
00000140: 5c5c 86bc 6817 c83b e039 403c 6826 a53b
00000150: fe55 d43c fca3 cd3c 151d ddbc 9085 0ebd
00000160: d0a5 733b 660b 1ebc cc2d d1bc e822 973c
00000170: c5e0 e9bc d043 083c d3c5 093d 60bc dd3b
00000180: 3212 61bc fbbe 0a3d 7067 80bc 4400 013c
00000190: 451a c3bc 83ac fdbc 739b 9ebc 4059 90bc
000001a0: 304b 713c 5a85 b9bc 7033 923b 6051 7d3c
000001b0: 94aa 92bb 5243 55bc 484b e93b 4057 a83a
000001c0: 8812 313c 20ff 3ebb a08f 9bba 52ca ef3c
000001d0: 9459 d4bb 6e76 e0bc 6225 02bd 735d a8bc
000001e0: b1e5 efbc 1a7d 80bc 6a61 da3c 63da 10bd
000001f0: 3aa4 b6bc 7259 37bc d808 8c3c 5411 ddbb
00000200: e9f9 013d 9644 c63c c835 a6bc 33be 96bc
00000210: 0004 513a e63f 04bd c104 f2bc 482a 98bb
00000220: 98d4 dabc 6792 88bc b025 7ebb 955d b1bc
00000230: 48b2 343c ea09 1abc 5da6 00bd 5869 893b
00000240: 9173 e6bc 82bf aa3c f8bc de3b 00cc b8bb
00000250: 6358 023d fe0a eb3c 72d8 943c 5a17 12bd
00000260: 20de d7ba 2a12 f43c fe81 843c ac99 8e3c
00000270: 6a67 13bc 40fc e9ba ba81 a2bc e4af 0dbc
00000280: 08ff 983b 4cbc d6bc 7328 93bc 161f 11bd
00000290: 15ee fbbc 5869 85bb 77b2 093d a4dc 803c
000002a0: 5a7b bfbc 1075 4e3c 2451 913c 5089 a43b
000002b0: 169d dd3c 2031 68bc 5c69 cbbb 9a85 00bd
000002c0: 581c 78bc e6ca b13c 6e23 0cbc faa6 e93c
000002d0: 0e46 c2bc 5fae 073d d8b4 59bc f872 21bc
000002e0: 1ad6 da3c 6096 493b 9a3c efbc a52f 083d
000002f0: 6058 00bd 561a f43c c8a1 a4bc 18b2 423c
00000300: bcbb b7bc 2ac7 37bc 352d 87bc 18a2 a23b
00000310: d043 5e3c 5e52 c93c 802c 163b a59e b2bc
00000320: bc80 f1bc 54ee 6f3c 8b0e 103d 4be1 053d
00000330: aa2c 0fbc 50b8 b23b be84 b53c a630 1dbc
00000340: 88a5 d73c beaf d4bc 009b bbbb ec7b 8fbc
00000350: 702b 8e3c 30e4 e13b 384e c7bb 2051 acba
00000360: 303f 013b e408 603c b071 b03b f29e 29bc
00000370: 2ed3 993c b0e0 3a3b b05e 543c eea5 fe3c
00000380: e0cd 923c da0c 0dbd e0f4 1c3b b8b8 48bc
00000390: 3aa9 f63c ee86 e73c 9819 4d3c 5c01 5d3c
000003a0: 58be 32bc 2e5b 8ebc 3872 763c eb3e 0a3d
000003b0: f81f 0c3c d567 b1bc 7ce0 e9bc 727b f53c
000003c0: 58e5 5b3c 0002 75ba ced8 933c d83a ab3b
000003d0: b257 59bc 4c61 af3c 6c86 adbc a02a 39bb
000003e0: 40a9 563a 70e1 c5bc b7bc 043d f02d 76bb
000003f0: 2a52 95bc ba91 be3c 9a4a a5bc 065a aa3c
0.005652599 -0.015251212 0.034907248 -0.0334181 0.018497795 -0.028504351 0.00073590875 -0.028554535
0.00065786764 0.031482536 -0.015337229 -0.024831384 0.034712326 -0.016396485 -0.008088704 -0.024317589
0.0016711727 -0.030665731 0.033211943 0.009996235 -0.0052489806 0.022229161 -0.016234761 0.021440648
-0.028626153 0.0028084815 0.03357688 -0.025968293 0.0024272911 -0.0241634 0.010440685 0.0034074448
-0.018793572 -0.027886119 -0.025962818 0.013004258 0.0081046 -0.018138958 -0.014128566 0.029667962
0.030580547 -0.028288033 0.024934828 -0.029145868 0.010516487 0.010980912 0.03505872 0.030301
-0.0356356 -0.02922062 -0.00085572153 -0.009486413 0.034834173 0.03180564 -0.035235576 0.025266293
0.024673287 0.009884357 0.022483103 0.031802226 -0.026296731 -0.026831686 -0.033528335 0.0139039755
-0.0223786 0.004539013 -0.0068745706 -0.03240721 -0.024875855 0.033678498 -0.01686361 -0.027331073
-0.011670165 0.022515286 -0.025658974 -0.018836623 -0.009639349 0.0032139346 -0.021004751 -0.031551503
-0.016401462 0.006106306 0.0117325485 0.005039979 0.02591991 0.025102608 -0.026991406 -0.034795344
0.003717769 -0.009646272 -0.025534533 0.018449262 -0.028549561 0.008316949 0.033635926 0.006766841
-0.013737248 0.03387354 -0.015674323 0.0078735985 -0.023816237 -0.030966049 -0.019361233 -0.017620683
0.014727399 -0.022646595 0.0044616982 0.015461296 -0.004475901 -0.013016539 0.00711957 0.0012843385
0.010807641 -0.0029143766 -0.0011868365 0.029271279 -0.006480405 -0.027400222 -0.031773932 -0.020552373
-0.02928433 -0.015684653 0.026657779 -0.03536452 -0.022295106 -0.011190759 0.01709406 -0.0067464504
0.031732474 0.024202626 -0.020289317 -0.01840124 0.00079733133 -0.0322875 -0.029543282 -0.004643712
-0.0267127 -0.016671373 -0.0038779788 -0.021651069 0.011028834 -0.009401778 -0.031408656 0.004193466
-0.028131278 0.020843271 0.006797429 -0.005639553 0.031822573 0.028691765 0.018169615 -0.0356668
-0.0016469397 0.029793818 0.016175266 0.01740726 -0.008996824 -0.0017851666 -0.01983725 -0.008647893
0.004669074 -0.026212834 -0.017963624 -0.035430036 -0.030753175 -0.004071396 0.033617463 0.01573021
-0.023374248 0.012601152 0.017738886 0.0050212517 0.027052443 -0.014171869 -0.006207628 -0.031377412
-0.015143476 0.021703195 -0.008553369 0.028522003 -0.023715045 0.033125278 -0.013287745 -0.009854071
0.02671342 0.0030759797 -0.029203702 0.033248562 -0.03133428 0.029797714 -0.020096675 0.011883281
-0.022428386 -0.011216918 -0.016501049 0.0049631707 0.013565972 0.024575409 0.0022914708 -0.021804163
-0.02948033 0.014644224 0.03517012 0.03268556 -0.008738676 0.0054541007 0.022158023 -0.009594118
0.026324049 -0.025962707 -0.0057252645 -0.017515145 0.017354697 0.006893657 -0.0060823224 -0.0013146736
0.00197215 0.013673995 0.0053846464 -0.010352837 0.018777456 0.0028515272 0.012962028 0.03108498
0.017920434 -0.034436084 0.0023949668 -0.012251072 0.03010999 0.028262582 0.012518309 0.013489094
-0.010909639 -0.017377462 0.01504188 0.03375141 0.008552544 -0.021655956 -0.028549425 0.02996609
0.013421379 -0.00093463063 0.018047716 0.0052255206 -0.013265537 0.0214087 -0.021182261 -0.0028254166
0.00081886724 -0.024155349 0.032406535 -0.0037564002 -0.018227655 0.023262847 -0.020177174 0.02079488

3.weight f4 [128, 256]
00000000: c039 4c3c 4ccb a83c 3a4d 35bd 10ba 0d3c
00000010: b21d 5a3d 3426 793d 8ea6 41bd 4480 cebc
00000020: 0070 14ba 3a5f 7f3d 2ead 62bd 20ae a0bc
00000030: 40a3 b83b ecf5 573d aed6 123d e4b8 713d
00000040: b0f4 b93c dc12 b2bc 4cae d83c 909b e43b
00000050: 2899 6ebd 20a5 e2bc 1cd8 8b3c d80c 74bc
00000060: 4c34 423d dae8 1bbd bc96 2d3d 101c 32bd
00000070: c4cd d53c 4ab2 29bd 5237 403d 4c02 afbc
00000080: e0b6 453c 8cce d2bc c077 eb3c f025 d1bc
00000090: 8828 1a3d 0069 68ba 4088 33bb 5643 7ebd
000000a0: ee3b 5b3d 0042 3e3c 04b1 8dbc 54fd df3c
000000b0: b019 c0bc 2881 923c 229e 423d ccbf e7bc
000000c0: f6e3 2c3d c07e c43b d292 5fbd 8877 673d
000000d0: 144e 373d c4fd 523d f207 553d 161c 79bd
000000e0: 0aa4 1dbd 4c70 743d 00b4 ac3b e080 23bc
000000f0: 1a36 0bbd e0b2 1bbb 5e8e 0b3d 3818 92bc
00000100: e0be 42bb e04c 5ebb e082 7fbc 94dc fcbc
00000110: b059 a8bc 1c0c 37bd 9044 113c 5466 143d
00000120: 36cf 0ebd 8614 68bd 5cdf 613d 5880 16bc
00000130: 32c4 5c3d e445 913c 8034 4abd 404d 003b
00000140: d0ca a1bc 90ab fb3c 5ca1 a6bc d863 b03c
00000150: 686e 5bbd 782d 753c 28c1 8e3c d0f2 94bb
00000160: 108c 6c3d c0f0 303c b05f 903b bcc3 06bd
00000170: 18c9 eabc ecea bf3c f055 a3bc 4cc1 bdbc
00000180: e2e4 6f3d e461 19bd 807b beba 00df 0b3b
00000190: f04b ad3c b6d3 2abd 243d 123d f42c dfbc
000001a0: cc62 da3c 0422 663d 382e 363c c003 e5bb
000001b0: acc0 7a3d caeb 1b3d 8087 77bb 2489 063d
000001c0: ecf6 59bd 2e08 42bd 2a0d 1e3d 5e74 19bd
000001d0: 68a7 f13c 7062 4bbd a8f2 23bc def6 39bd
000001e0: acd6 3dbd 4afe 7d3d b82a 76bc cead 2abd
000001f0: e821 583d c075 cc3c c047 78bc 3076 4c3c
00000200: fc5e 6bbd c4a4 303d 5c8d 5e3d b059 9dbc
00000210: 60a6 b3bc c0e8 cabc f8f4 00bc 00b0 fd3b
00000220: 2473 9ebc accf 333d 18f6 54bc 4ec0 49bd
00000230: 9419 71bd d674 41bd 8c9b d83c 90ef dd3b
00000240: f6fb 603d 36b4 23bd 4885 a4bc f851 613c
00000250: 182e 053c 3ab3 113d 8251 79bd f09e 7c3c
00000260: 2443 59bd 0c74 ab3c f86b 12bc c0fc ab3b
00000270: fe9a 523d 2467 003d 4082 d83a b05c 9c3b
00000280: a000 d9bb 80fb f6bc 2231 793d 9067 c1bb
00000290: fc69 78bd 3e13 303d c03e 21bc 9418 7a3d
000002a0: 26b1 4e3d b218 4b3d 4ee0 233d 8653 783d
000002b0: ecba 75bd baec 66bd 7806 47bc 48b5 1c3c
000002c0: a8b7 323c 50ff 273c c09e 3dbb 9c94 d43c
000002d0: 8c64 49bd 3a36 5d3d f870 6f3c dc21 653d
000002e0: 20ac a83c 9254 1c3d 10ff 44bc c0d8 f6bb
000002f0: f04f 7fbd ce80 5bbd 9c26 5abd 0896 86bc
00000300: a05c 5a3c 00cf 82ba 44c1 de3c a2a1 793d
00000310: ec46 923c 8a6f 16bd c00c 47bd 5822 ef3c
00000320: 709a 4c3c 6096 4ebb 8c7e 8abc 5822 7a3c
00000330: fcb0 01bd 9c7d a63c a284 77bd d8cc 343c
00000340: f8f8 113c 0027 beb9 fea6 763d f4ae 0c3d
00000350: d85a e13c b8ba 533d 2063 793b 760b 783d
00000360: 7a55 363d 100e bd3c d0eb 41bc 9e26 71bd
00000370: 7c6b b03c 58e0 ef3c b00f d6bb ac10 6c3d
00000380: e803 5c3d b800 473d 16c7 5dbd 8252 383d
00000390: ee32 28bd 7ee6 103d 0038 2b3d 20ea c6bb
000003a0: d816 4fbd a4ed 85bc b0fd dd3b bee0 4bbd
000003b0: 2844 063d 3869 e6bc 1c0e 7e3d 6ca8 8fbc
000003c0: fc0c 09bd 1cce f03c a058 d9bc 5057 7f3d
000003d0: c479 b6bc 7807 a8bc 68f5 3abd c0ec fbbb
000003e0: 548a bebc 3c9f 21bd 489b 183d cc9a a9bc
000003f0: f216 673d 983f 5c3c 480b 643c b228 633d
0.012464941 0.020604752 -0.044263102 0.008650318 0.053250976 0.06082745 -0.04727798 -0.025207646
-0.0005662441 0.062346675 -0.05534094 -0.01961428 0.0056346953 0.052724764 0.035849266 0.059014216
0.022699684 -0.021737508 0.026450299 0.0069765523 -0.05825153 -0.027666628 0.017070822 -0.01489564
0.047413155 -0.03806386 0.04238008 -0.043483794 0.026099093 -0.041429795 0.046927758 -0.0213634
0.012067527 -0.025733255 0.028743625 -0.025530785 0.03763631 -0.0008865744 -0.0027394444 -0.062075935
0.05352395 0.011612415 -0.017296322 0.027342476 -0.023449749 0.017883852 0.04751409 -0.028289698
0.042209588 0.005996555 -0.054583378 0.05651048 0.044752195 0.05151154 0.05200953 -0.0608178
-0.038486518 0.059677407 0.005270481 -0.009979457 -0.033987142 -0.002375774 0.03407132 -0.017833814
-0.002971582 -0.0033920333 -0.015595168 -0.030866899 -0.020550579 -0.044689283 0.008866444 0.0362304
-0.03486558 -0.056660198 0.055144653 -0.009185873 0.053898044 0.017733522 -0.049366474 0.0019577295
-0.019750029 0.030721456 -0.020340614 0.021531984 -0.05357209 0.014964454 0.017426088 -0.004545547
0.05775076 0.010799587 0.004405938 -0.03290151 -0.028660342 0.02342745 -0.01993844 -0.02316346
0.05856789 -0.03744687 -0.0014532655 0.0021342635 0.021154374 -0.04170581 0.03570284 -0.027243115
0.026658438 0.056184784 0.011119418 -0.0069889724 0.061218902 0.038066663 -0.0037769973 0.03284563
-0.053214 -0.047371082 0.038586773 -0.037464492 0.02949877 -0.049654424 -0.010006584 -0.045401447
-0.046347305 0.062010087 -0.015024833 -0.04166966 0.05276671 0.024958491 -0.015153825 0.01247935
-0.05746363 0.043125883 0.05433403 -0.019207805 -0.02192992 -0.024769187 -0.007870905 0.007741928
-0.019342013 0.043899223 -0.012998126 -0.04925566 -0.058862284 -0.047230564 0.026441358 0.006772943
0.05492779 -0.039966784 -0.020083085 0.013752453 0.008128665 0.035571314 -0.060868748 0.015418753
-0.053042546 0.020929359 -0.008936875 0.005248636 0.051417343 0.031348363 0.001651831 0.0047717914
-0.006622389 -0.030149221 0.060837872 -0.005902238 -0.06064795 0.0429871 -0.009841621 0.061058596
0.05046191 0.0495841 0.040008835 0.06062653 -0.059992716 -0.056378104 -0.012147538 0.009564705
0.010908045 0.010253742 -0.0028933734 0.025949769 -0.049168155 0.054006793 0.014614336 0.055940494
0.020589888 0.03816659 -0.012023702 -0.007533163 -0.062332094 -0.053589635 -0.053259477 -0.016428962
0.013327748 -0.0009979904 0.027191766 0.06094516 0.017856084 -0.036727466 -0.048596144 0.029191181
0.012487993 -0.0031522736 -0.016906045 0.015266977 -0.031662926 0.020323567 -0.060429223 0.011035167
0.008909456 -0.0003626868 0.06021785 0.034346536 0.027509138 0.05169174 0.0038053468 0.060557805
0.04451511 0.023077995 -0.011836007 -0.05887472 0.021535628 0.02928178 -0.006532632 0.057633087
0.053714663 0.04858467 -0.05414494 0.04500056 -0.041064195 0.035376064 0.041801453 -0.0060703903
-0.050558895 -0.016348667 0.0067746267 -0.049774878 0.032779843 -0.028126344 0.062025174 -0.017536364
-0.03345965 0.029395156 -0.026531518 0.062339127 -0.02227486 -0.020511374 -0.045644194 -0.007688135
-0.02325932 -0.0394585 0.037257463 -0.020703696 0.056418367 0.013442896 0.013918705 0.055458732

3.bias f4 [128]
00000000: e4b2 1fbd 7e5a 553d 489e 40bc 209b 4fbc
00000010: b8df 63bc a893 1c3d 3c58 243d f830 49bc
00000020: 26d0 2abd d825 53bc 9096 97bc 305c b7bb
00000030: 4064 70bd 380e 0abc 38f4 2c3c 385d 4dbd
00000040: 56c7 3c3d 8057 48bb 8c3a 98bc 5c43 9b3c
00000050: e04e 5a3c 501b 2fbd 602a 7cbc 8007 3ebd
00000060: 60a5 9c3c a816 6b3d 6e1d 70bd 226e 15bd
00000070: 70ac 49bc fce5 39bd e047 9b3b 50be d43b
00000080: 1056 34bd 94d0 59bd 8033 0bbd 2058 1ebd
00000090: ec83 803c 5082 183d b4ca 933c b0f0 ce3b
000000a0: ec29 76bd de03 0d3d 36ea 213d 1053 e53b
000000b0: 702e 38bc 80eb c7ba e27b 203d 009d 343a
000000c0: c09f 383b 2e86 2fbd b4aa 283d d42a e4bc
000000d0: 90c1 48bd 443e 423d 7898 253d d088 34bc
000000e0: fc92 5d3d c056 a93c c805 1abc 38a1 4cbd
000000f0: 0088 41bd 0009 5cba 2047 9abc 04cc 043d
00000100: d403 54bd 2809 703d 5057 4fbd 82f2 42bd
00000110: 444d 913c fa34 28bd ae0c 6cbd 1ec3 68bd
00000120: 38a9 30bd 50ee 34bc 1c3a 6ebd 4443 bcbc
00000130: aef8 133d fe70 2e3d c489 163d 9051 533c
00000140: a845 aabc 4e0c 423d 1222 61bd d0b3 d43c
00000150: 5065 0b3c a873 df3c 607b 32bb 383c 673c
00000160: e020 92bc e89d e6bc 0e42 5b3d b8fc a1bc
00000170: 402d c83c 0002 2539 c01d b93b 10bc f53b
00000180: a47a e23c a026 83bb 9016 14bc 7a33 273d
00000190: 4090 af3c 0841 dc3c 2869 5c3d 5aab 6dbd
000001a0: 0095 a13b f8c4 c9bc 94d2 d53c b29c 49bd
000001b0: 2ef1 33bd 408e 503d 504d d0bb 76dc 66bd
000001c0: 1029 0c3c 701a 52bc 7293 1fbd cee7 043d
000001d0: 980b eb3c dc71 4e3d a673 39bd 72e2 6f3d
000001e0: f2f6 73bd 4074 5d3b fce7 d53c 84e5 173d
000001f0: 8c7a d0bc 2ca6 e83c d69c 7bbd 46f6 60bd
-0.038988963 0.052088253 -0.011756487 -0.012671262 -0.013908319 0.038226753 0.04012321 -0.0122797415
-0.041702412 -0.012887441 -0.018504411 -0.0055957064 -0.058689356 -0.008426242 0.010556273 -0.05013773
0.04608854 -0.0030569732 -0.018582605 0.018953018 0.013324469 -0.042750657 -0.015390962 -0.04639387
0.019121826 0.057394654 -0.058621816 -0.036481984 -0.012309179 -0.045385346 0.004738793 0.0064924136
-0.044027388 -0.05317743 -0.03398466 -0.03865826 0.015687905 0.03723365 0.018040992 0.0063153133
-0.060098574 0.034427516 0.03953 0.006998427 -0.01124154 -0.001525268 0.039180644 0.000688985
0.002817139 -0.042852573 0.04117842 -0.027852453 -0.04901272 0.047422662 0.04042861 -0.011018947
0.054095253 0.020671248 -0.009400792 -0.049958438 -0.04724884 -0.0008393675 -0.018832743 0.032421127
-0.051761463 0.058602482 -0.050620377 -0.047594555 0.017737038 -0.041066147 -0.05762928 -0.056826703
-0.04313013 -0.011043146 -0.058160886 -0.022981293 0.03612583 0.042588226 0.036752477 0.012897864
-0.020785168 0.047375016 -0.054964133 0.025964648 0.0085080415 0.027276829 -0.0027234182 0.014113478
-0.017837942 -0.028151467 0.05352979 -0.019773826 0.02443564 0.00015736371 0.0056492984 0.0074992254
0.02764637 -0.004002407 -0.009038582 0.040820576 0.021431088 0.026886478 0.053811222 -0.05802474
0.0049310923 -0.024630055 0.026101388 -0.049221702 -0.04393118 0.05091691 -0.0063568726 -0.05636259
0.008554712 -0.012823686 -0.038958974 0.03244763 0.028692052 0.050401554 -0.045276307 0.058565564
-0.059561677 0.0033791214 0.026111595 0.037084118 -0.02544906 0.02839955 -0.061428867 -0.054922365

5.weight f4 [62, 128]
00000000: 2b3b 903d 4a9c 99bd 0004 6fb9 e0ab 2bbb
00000010: 848c c6bc 0dad 86bd 1b9b abbd 3666 7e3d
00000020: dfa4 21bd 2aa8 683d bc69 8abd 8379 933d
00000030: e213 053d 0fe1 893d 507c 473c 1174 a5bd
00000040: 96d0 703d a03d ff3b 9a46 17bd 2a11 0a3d
00000050: 85a2 b43d a6b8 75bd a04e 07bb 20af cabb
00000060: 2e15 453d 23a2 8f3d a2ce 603d 494c 953d
00000070: e006 d23c 4d46 b13d 0021 e4bb 16b5 053d
00000080: 265c 263d 74f6 b1bd 5c40 9c3c e667 a8bd
00000090: 7fc4 7dbd 721c 5b3d c44d 923c c980 813d
000000a0: 4bac a03d 5577 a83d 3e81 6cbd aef9 343d
000000b0: a0a9 36bb 4fa0 b13d 7b0a ac3d 10e2 d93c
000000c0: 9467 9dbd 70d7 8c3b ea3b 223d 725b 9cbd
000000d0: e91d 80bd 009d d4bb f85f 82bd 90b7 863c
000000e0: 1750 823d fabe 26bd c1f7 ae3d 9c26 fa3c
000000f0: 4150 903d beac d9bc aebf afbd b21c aebd
00000100: 90cc b83b 2c76 d0bc 1830 503c d298 673d
00000110: a67b 2d3d 00d8 a5b9 4480 9abd ca9b 3b3d
00000120: 8717 75bd b380 a53d 8881 a1bd e204 363d
00000130: 20cc e4bb 9c82 a93c e0b5 e63b f2a8 553d
00000140: a067 a93c c28d 3cbd 7d41 863d 7c3f 9c3c
00000150: 7289 263d 5470 05bd 9b81 0abd ee1c 2d3d
00000160: 5e47 3a3d 0070 81b8 25f7 823d 3491 113d
00000170: 50d9 81bc a09c b93c 2e61 1cbd bbe6 813d
00000180: e0b3 033c c2e1 773d 9e31 1b3d 58bd 143d
00000190: a1c2 20bd 3514 ac3d 5015 5a3c 204f 8bbc
000001a0: 2e9a 033d 5097 e8bb d072 0ebc 0673 183d
000001b0: 6a83 80bd 3003 bf3b e695 8bbd 2494 95bd
000001c0: 68cc 8abd 3b02 a73d 958c 63bd b0fa 5a3c
000001d0: 558d 993d 875f af3d 603d 74bc 4837 10bc
000001e0: c496 c93c f4e5 a73c 17c7 81bd f815 2ebd
000001f0: dbf9 ae3d 2034 54bb 00e4 993b a36d 99bd
00000200: e4ad 88bd c3fa 943d d817 cf3c 0017 ce3b
00000210: c8a0 b3bd c910 833d b053 51bc 5cf4 a6bc
00000220: bace 9bbd 8064 d93b c06d 17bb b457 e03c
00000230: 1864 21bd 3eca 053d 0493 6fbd 4002 d73a
00000240: b4f7 063d f444 37bd 3c0f 91bc c511 a83d
00000250: e88d 65bc d13b a83d 2ede 21bd 607b dd3b
00000260: 3c7a 8f3c 71df 2bbd 2033 60bb f7f0 923d
00000270: c238 87bd 20b7 66bc 4099 8a3c 483f ba3c
00000280: 5c59 c6bc 4e17 6fbd c087 cbbb 3378 65bd
00000290: 581a 29bc 0074 aab8 5af7 1b3d 9a06 593d
000002a0: 6e72 213d 1cd0 84bc f01f b93c 229c 673d
000002b0: b300 32bd da75 1b3d 1c8c c83c 1007 83bd
000002c0: 323c 92bd a879 aa3c 9818 59bc a8dd 0f3d
000002d0: 9497 8dbd c914 aabd c38d 8f3d ee3d 5b3d
000002e0: e626 3f3d c5be 9c3d 9ba8 25bd 5072 b8bb
000002f0: 7f36 823d 4b10 a7bd 0095 73bc 701e 533c
00000300: a06f a8bd a82a 26bc d21b 4abd 58db 4fbc
00000310: e308 7ebd fa6f 0bbd 3d98 a9bd df9c 9fbd
00000320: 2653 86bd b422 bfbc 00a7 12bc 6b41 b23d
00000330: fe01 9ebd 30f4 34bc cdaa 24bd db34 a83d
00000340: 95c8 9e3d 479e 14bd 6c64 803c 8838 283c
00000350: dbf7 1fbd b83e cabc 525e 753d 9eac 203d
00000360: 3f30 aabd ce0c 513d aa15 40bd 826a 4abd
00000370: bcbc 023d e979 61bd 1cca 86bc cb54 10bd
00000380: d1e9 803d 814a 8c3d 0000 0739 6498 87bd
00000390: 5025 76bd 246e 97bc c02c 46bb da77 2c3d
000003a0: bad7 0a3d b644 26bd 3d71 2ebd 8f95 08bd
000003b0: 4599 87bd abc2 96bd a0e0 e53c 078e 84bd
000003c0: b65c fabc 5a74 07bd 624c 79bd 5e45 8ebd
000003d0: 500b f03b 00e5 3bba 2f7f b3bd 0416 ea3c
000003e0: 42e7 5a3d 30d8 4cbc ea4f 7f3d f23c 5a3d
000003f0: d899 603c fed2 193d f40e afbc 693a 83bd
0.070425354 -0.07500513 -0.00022794306 -0.0026194975 -0.024236925 -0.065759756 -0.083791934 0.062109195
-0.039463874 0.056801 -0.067584485 0.07200911 0.032489665 0.0673238 0.0121756345 -0.080787785
0.058792673 0.0077893287 -0.036932565 0.033707775 0.08820061 -0.059990548 -0.002064623 -0.0061854273
0.0481159 0.07013347 0.05488456 0.07289941 0.025638044 0.08655987 -0.0069619417 0.0326434
0.040615223 -0.08689585 0.019073658 -0.08222942 -0.06195497 0.053493924 0.017859347 0.06323392
0.07845362 0.08225886 -0.057740442 0.044183426 -0.00278721 0.086731546 0.084004365 0.026597053
-0.076857716 0.004298143 0.03960792 -0.07634629 -0.06255705 -0.0064884424 -0.06365961 0.016444951
0.06362932 -0.040709473 0.08543349 0.030535989 0.07046557 -0.026571628 -0.08581482 -0.08501567
0.00563962 -0.025446974 0.012706779 0.056542225 0.04235425 -0.00031632185 -0.07543996 0.04580287
-0.05983689 0.08081188 -0.07886034 0.04443825 -0.0069823414 0.020692162 0.007040724 0.052163072
0.020679295 -0.04603363 0.0655546 0.01907324 0.04065842 -0.032577828 -0.033815008 0.042263918
0.045478217 -6.172061e-05 0.06394795 0.035538867 -0.015850693 0.022657692 -0.038178615 0.063428365
0.008038491 0.060518034 0.037889116 0.036313385 -0.039248113 0.08402292 0.013310745 -0.017005503
0.03212946 -0.007098116 -0.008694366 0.03721907 -0.06275065 0.0058292374 -0.068157 -0.07303646
-0.06777269 0.08154722 -0.05555399 0.013365433 0.0749766 0.08563142 -0.014907211 -0.008802243
0.024608023 0.020495392 -0.063368015 -0.04250142 0.0854375 -0.0032379702 0.004696369 -0.07491615
-0.06673792 0.072743915 0.025279924 0.006289363 -0.08770901 0.06399686 -0.0127763 -0.020380192
-0.07607789 0.006634295 -0.0023106188 0.02738557 -0.039402097 0.032663576 -0.058489814 0.0016403869
0.03295107 -0.044743493 -0.01770746 0.08206514 -0.014010884 0.08214534 -0.039518528 0.006759092
0.01751434 -0.041961137 -0.003421016 0.07174867 -0.066026226 -0.014081746 0.016918778 0.022735253
-0.024212532 -0.058371834 -0.006211251 -0.056022834 -0.010321222 -8.1278384e-05 0.03807769 0.05298481
0.03941577 -0.016212516 0.022598237 0.056545384 -0.043457698 0.03795419 0.024480872 -0.063978314
-0.071403876 0.020809963 -0.0132504925 0.035123497 -0.06913677 -0.08304746 0.07009461 0.053525858
0.046667956 0.07653574 -0.040443998 -0.0056288615 0.063580506 -0.081574045 -0.014867067 0.012885675
-0.08224416 -0.010142006 -0.049342938 -0.012686573 -0.062020194 -0.034042336 -0.0828099 -0.07793593
-0.06558828 -0.023331977 -0.008950949 0.08703884 -0.07715224 -0.011044547 -0.04020195 0.082132064
0.07753102 -0.036283758 0.015672885 0.010267384 -0.039054733 -0.02468811 0.059904404 0.03922712
-0.083099835 0.051037602 -0.04689566 -0.04941798 0.031918272 -0.055047903 -0.016453795 -0.035237115
0.06294597 0.06850148 0.00012874603 -0.06620863 -0.060094178 -0.018485136 -0.0030239075 0.042106487
0.03389714 -0.04059287 -0.04258846 -0.033345755 -0.06621031 -0.07361349 0.028061211 -0.06472402
-0.030561786 -0.033069946 -0.06086386 -0.069468245 0.0073255673 -0.00071676075 -0.08764493 0.028574951
0.0534432 -0.012502715 0.06233207 0.05328078 0.013708554 0.037554733 -0.021369435 -0.06407625

5.bias f4 [62]
00000000: 1032 73bc d6cf 4f3d 3db6 96bd 91dd b23d
00000010: 4643 333d 3663 3d3d 8ae9 49bd b021 db3b
00000020: 4946 a7bd 5504 52bd cdcc 4fbd 6657 0c3d
00000030: 824c 6d3d 1f3b a23d 42b3 323d 6134 893d
00000040: b632 05bd 455f a43d 04f4 073d a36b 26bd
00000050: 67b9 a5bd 2f59 a43d 9045 183c ce29 213d
00000060: 5c83 76bd 7e03 86bd 77b7 a93d f51d 953d
00000070: 7dd0 28bd 4af7 6cbd a680 4ebd fafa abbd
00000080: 60f2 e8bb e89a ea3c 30b9 9b3b 90f2 54bd
00000090: 41c6 35bd 200f 9fbc 60ad 813c 3e34 783d
000000a0: bb56 813d ec2d 0a3d 085a 99bc 296e 823d
000000b0: 5459 76bd bbde a13d 107e 81bb 5f01 b23d
000000c0: 9ba2 853d 101f d0bb a0eb abbb 5a31 6d3d
000000d0: dc69 82bd b84c 763c d204 76bd af6d 36bd
000000e0: 6655 83bd 3255 533d a685 1b3d 2a0e a5bd
000000f0: b1b6 a83d 60d9 0d3c
-0.014843479 0.050735317 -0.07358978 0.08733667 0.04376533 0.046237193 -0.049294986 0.0066873655
-0.08167703 -0.051273663 -0.050732423 0.034263037 0.05793429 0.07921433 0.043627985 0.066994436
-0.032519065 0.08025984 0.033191696 -0.040629994 -0.08092003 0.08024823 0.009293929 0.03934651
-0.060183868 -0.06543635 0.08286946 0.072811045 -0.041214455 -0.05785302 -0.050415657 -0.08397479
-0.0071089715 0.028638318 0.0047523007 -0.051989138 -0.044378523 -0.019416392 0.015829742 0.060596697
0.06315371 0.0337352 -0.018719688 0.06368668 -0.060143784 0.079038106 -0.0039517954 0.08691668
0.06525155 -0.006351359 -0.0052465945 0.057908393 -0.06367847 0.01503294 -0.06006319 -0.044538196
-0.06412773 0.05159492 0.037969254 -0.08059342 0.082379706 0.008657783
