models/emnist_model.onnx (onnx, 960638 bytes, 6 tensors)

fc1.weight f4 [256, 784]
0	0x3b99cc88	0.0046935715
1	0x3ce3d5c6	0.027811896
2	0x3a5096c0	0.0007957034
3	0xbd06b828	-0.03289047
4	0xbe21c423	-0.15797476
5	0xbe2e28b9	-0.17007722
6	0xbe87bdd9	-0.2651203
7	0xbe5c00f9	-0.21484746
8	0xbe3e331d	-0.18574186
9	0x3c9de3f3	0.019273734
10	0x3e077780	0.1322918
11	0x3c512df1	0.012767301
12	0xbd1153f3	-0.03548045
13	0xbc825b0f	-0.01591256
14	0xbe2ec3fa	-0.17066947
15	0xbe008439	-0.12550439
16	0xbe6d1d5a	-0.23155728
17	0xbe45c354	-0.19312793
18	0xbe4e4e83	-0.20147137
19	0xbd8cb909	-0.0687123
20	0xbd92b162	-0.07162739
21	0xbd6e2d81	-0.058148865
22	0x3d23df63	0.04000796
23	0xbcad2503	-0.021135813
24	0xbc9b4ade	-0.018956598
25	0x3cb11b72	0.021619532
26	0xbccddcca	-0.025129694
27	0x3c3deafc	0.011591669
28	0x3bf4f6f8	0.00747573
29	0x3de480d9	0.11157388
30	0x3e81ea87	0.25374243
31	0x3e258f46	0.16167936
32	0xbe0e1476	-0.13874993
33	0xbd9fae17	-0.07796877
34	0x3c92c0da	0.017914224
35	0xbd2856f5	-0.041098554
36	0xbcd719be	-0.026257392
37	0x3d8de862	0.06929089
38	0x3e36dcea	0.1785771
39	0x3e870ed8	0.26378512
40	0x3d0a8eef	0.03382772
41	0x3d7a57ea	0.061118998
42	0xbdc3c351	-0.09558738
43	0xbc72888f	-0.014803066
44	0xbe66da8e	-0.2254431
45	0xbe6365fc	-0.22206873
46	0xbe091f6c	-0.13390893
47	0xbd292528	-0.0412952
48	0x3deeb748	0.11656052
49	0xbe157a48	-0.14597428
50	0xbd84cc83	-0.0648432
51	0xbe02a650	-0.12758756
52	0xbe13ad18	-0.14421499
53	0xbdc856d0	-0.09782183
54	0x3e1ec143	0.15503411
55	0x3d0ea343	0.034823667
56	0x3cdcce56	0.026953857
57	0x3d3cdda8	0.046109825
58	0x3e27d5e0	0.1639018
59	0x3dd10854	0.102066666
60	0x3cb47be8	0.02203174
61	0x3ddaf8dc	0.106919974
62	0xbc9eeda0	-0.019400418
63	0x3dbc0422	0.09180476
64	0x3e1a6c36	0.15080342
65	0x3e9ca445	0.30594078
66	0x3e2d9a24	0.16953331
67	0x3de37c21	0.1110766
68	0x3db03647	0.086041026
69	0x3b963615	0.004584084
70	0xbe1b5e47	-0.15172683
71	0xbe1f76b1	-0.15572621
72	0xbea92176	-0.3303334
73	0xbec3e606	-0.3826143
74	0xbe9e8469	-0.30960396
75	0xbe262a6f	-0.16227125
76	0xbdba4897	-0.09095877
77	0xbe708539	-0.2348832
78	0xbd8a1a40	-0.06743288
79	0xbdc99f56	-0.09844844
80	0xbdf3d4d6	-0.119058296
81	0xbdefd7d9	-0.117110915
82	0x3e1223fe	0.14271542
83	0x3c217080	0.009853482
84	0x3cd2a750	0.025714546
85	0x3e494c12	0.19657925
86	0x3e151e70	0.14562392
87	0x3bea621a	0.007152808
88	0x3b1b17ce	0.0023665312
89	0x3da5c8f6	0.08094971
90	0x3d15b00d	0.03654485
91	0x3de1ca8c	0.11024961
92	0x3e123b0d	0.14280339
93	0x3db435a6	0.08799295
94	0x3d3116c3	0.043234598
95	0xbc9f8ca9	-0.019476252
96	0xbdacb853	-0.084335946
97	0xbe23f175	-0.16010077
98	0xbe862150	-0.2619729
99	0xbeb791ce	-0.35853428
100	0xbeedf8de	-0.46478933
101	0xbf0c58e9	-0.54823166
102	0xbefdf2e6	-0.4959938
103	0xbeddc158	-0.43311572
104	0xbecbb84d	-0.39789048
105	0xbea9566c	-0.33073747
106	0xbe3497d2	-0.1763604
107	0xbe033a86	-0.12815294
108	0xbe138f5f	-0.1441016
109	0xbde9617f	-0.11395549
110	0x3c0da417	0.008645079
111	0xbd7362a7	-0.059420254
112	0xbc633fd2	-0.013870196
113	0x3e670f9b	0.22564547
114	0x3d999efe	0.075010285
115	0xbbd81716	-0.006594549
116	0x3c034e70	0.008014306
117	0x3d3d5124	0.04621996
118	0x3cf0974f	0.029369025
119	0x3dbd47ed	0.092422344
120	0x3dbd1632	0.09232749
121	0xbcf1c240	-0.02951157
122	0x39c6633d	0.0003783944
123	0xbcb028a9	-0.021503763
124	0xbd944f8b	-0.07241734
125	0xbdbef5b0	-0.09324205
126	0xbe18f2bf	-0.1493635
127	0xbe583285	-0.21113022
128	0xbeb01e75	-0.34398237
129	0xbedc843a	-0.4306963
130	0xbef5d2a3	-0.48012266
131	0xbec84938	-0.3911836
132	0xbeacef95	-0.33776537
133	0xbe9d6e13	-0.30748042
134	0xbe3c7159	-0.18402614
135	0xbe01d1e4	-0.12677723
136	0xbe7939f6	-0.24338517
137	0xbe437274	-0.19086629
138	0xbe496b49	-0.19669832
139	0xbd619fc3	-0.055084
140	0xbca37643	-0.019953853
141	0x3e4f63c2	0.20252898
142	0x3ddaee86	0.10690026
143	0x3d1e9c08	0.03872302
144	0x3db37146	0.087618396
145	0x3dd8a128	0.10577613
146	0x3d0486af	0.032355007
147	0x3caa7aa3	0.02081043
148	0xbceab7e8	-0.028652146
149	0xbdfe7634	-0.12424889
150	0xbdcd4a16	-0.100238964
151	0x3d305d13	0.043057512
152	0x3d436fcd	0.047714043
153	0xbd982a0f	-0.07429897
154	0xbd5ade16	-0.053434454
155	0xbd612907	-0.054970767
156	0xbe35022a	-0.17676607
157	0xbe8d4646	-0.27592677
158	0xbed1817b	-0.40919098
159	0xbea6544d	-0.3248619
160	0xbe9f4753	-0.31109104
161	0xbe96bc1d	-0.29440394
162	0xbe960f8a	-0.2930873
163	0xbe41177d	-0.18856616
164	0xbe351581	-0.17683984
165	0xbe3a29ff	-0.18180083
166	0xbe069ed7	-0.1314653
167	0x3cf3f8be	0.029781695
168	0xbd05702b	-0.032577675
169	0xbb2c90b3	-0.0026331365
170	0x3dac3c9b	0.08409997
171	0x3dc8ec42	0.098106876
172	0x3deccd33	0.11562576
173	0x3dd9aa7a	0.10628219
174	0x3cb9e434	0.022691824
175	0xbd0e35d0	-0.03471929
176	0xbc104cfe	-0.008807419
177	0xbe03609a	-0.1282982
178	0xbda5bf87	-0.080931716
179	0x3ce6b424	0.02816207
180	0xbc701862	-0.014654251
181	0xbe016be8	-0.12638819
182	0xbc98dc9c	-0.018659882
183	0x3d297b83	0.041377556
184	0xbd232009	-0.039825473
185	0xbe238fec	-0.1597287
186	0xbe7ca979	-0.24674024
187	0xbe8663df	-0.2624807
188	0xbe734f97	-0.2376083
189	0xbe993cd3	-0.29929218
190	0xbe8f6101	-0.28003696
191	0xbe2aeaed	-0.1669118
192	0xbe09ba8d	-0.1345007
193	0xbe22fdc2	-0.15917113
194	0x3a844e8d	0.0010094211
195	0xbb52ebc3	-0.0032183982
196	0x3d018093	0.03161676
197	0xbe2f3942	-0.17111686
198	0x3c8a91db	0.016915252
199	0x3d8e6cd3	0.0695435
200	0x3d86933a	0.0657105
201	0x3ddca27f	0.10773181
202	0x3d479bb8	0.04873249
203	0xbd89797d	-0.06712625
204	0xbcf5da3b	-0.030011287
205	0xbd7dd05f	-0.061966296
206	0x3c24ed3b	0.010066326
207	0x3d26a4fc	0.040684685
208	0xbc6ef855	-0.014585574
209	0xbda98099	-0.08276481
210	0xbd10979f	-0.035300847
211	0x3c535644	0.012898985
212	0xbde0e7f0	-0.109817386
213	0xbe8a5b9a	-0.2702301
214	0xbed6c017	-0.41943428
215	0xbeb7f226	-0.35926932
216	0xbecca05c	-0.39966094
217	0xbecc667a	-0.39921933
218	0xbe793705	-0.24337395
219	0xbdfd513c	-0.1236901
220	0xbd8edc30	-0.06975591
221	0xbdc0ef81	-0.09420682
222	0xbe1405b6	-0.14455304
223	0xbc3b8938	-0.01144629
224	0x3d105119	0.03523359
225	0xbe1fc5f3	-0.15602855
226	0xbd1ac1bb	-0.037782412
227	0x3dc72399	0.097235866
228	0x3df1b4f5	0.11802093
229	0x3d1179ee	0.03551667
230	0xbd7a07f5	-0.061042745
231	0xbe391e4c	-0.18077964
232	0xbd7ac5fc	-0.06122397
233	0x3d13505f	0.03596532
234	0x3d8102c5	0.06299356
235	0x3d85d4b3	0.0653471
236	0x3bb43d92	0.005500504
237	0xbd23cc65	-0.039989848
238	0x3d180c5e	0.03712117
239	0xbdd062e6	-0.101751134
240	0xbe8b2459	-0.2717617
241	0xbee840b5	-0.45361868
242	0xbf0fbec4	-0.5615046
243	0xbf0f0712	-0.55870163
244	0xbef051c7	-0.4693739
245	0xbeae911d	-0.34095088
246	0xbe1e7252	-0.15473297
247	0x3b99f81f	0.004698768
248	0x3dd885c4	0.10572389
249	0x3e23f25a	0.16010419
250	0x3d95e834	0.0731968
251	0xbd9e252c	-0.07721934
252	0xbd04d40c	-0.032428786
253	0xbe23e8a6	-0.16006717
254	0xbd8f781c	-0.07005331
255	0x3d926be2	0.07149483

fc1.bias f4 [256]
0	0xbd1d8fb1	-0.038467113
1	0x3cc07755	0.023494402
2	0xbe24eacc	-0.16105193
3	0xbd83cf55	-0.0643603
4	0x3e14742d	0.14497443
5	0xbe2aed8d	-0.16692181
6	0xbb9d56e3	-0.0048016175
7	0x3e57e44e	0.21083185
8	0xbc282b8d	-0.01026429
9	0xbe712e52	-0.23552826
10	0x3e5647d8	0.20925844
11	0x3b86c604	0.004112961
12	0x3d9a8a2f	0.07545888
13	0xbcee832f	-0.029115288
14	0xbe5ad456	-0.21370062
15	0x3e5f7fc5	0.21826084
16	0x3c429849	0.011877128
17	0x3dfb705f	0.122772925
18	0xbd26357a	-0.040578343
19	0x3db40ed1	0.087918885
20	0x3ddf6115	0.10907189
21	0xbc85b740	-0.016322732
22	0xbc502d9a	-0.012706185
23	0x3d6cdb50	0.05782634
24	0xbb0cb81f	-0.002147205
25	0x3dd9a8b3	0.1062788
26	0x3e065863	0.13119654
27	0x3e667d2a	0.22508684
28	0xbd3d7a79	-0.046259377
29	0x3eabe738	0.33574843
30	0xbcb90680	-0.022586107
31	0x3e8369d1	0.2566667
32	0xbde70e2d	-0.11282001
33	0x3de075fb	0.10960003
34	0xbd2a7ef1	-0.041624967
35	0x3e651dcf	0.22374652
36	0x3d0f773d	0.035025824
37	0xbd1cf08b	-0.038315337
38	0xbbb528a6	-0.0055285273
39	0xbe130937	-0.14358984
40	0x3e8e3147	0.2777197
41	0xbd1c138c	-0.03810458
42	0x3ea659eb	0.32490477
43	0xbe9ba0a6	-0.30396003
44	0x3d8c9af8	0.068654954
45	0xbd84b897	-0.0648052
46	0x3da59fca	0.08087118
47	0x3d9a896d	0.07545743
48	0x3d030dc1	0.03199554
49	0xbddeda2a	-0.10881455
50	0xbba928cc	-0.005162334
51	0xbbbe3502	-0.005804659
52	0x3d93f29c	0.072240084
53	0xbe56329a	-0.2091774
54	0x3d0fc25e	0.035097472
55	0xbccd9fdf	-0.025100647
56	0x3e3b73f8	0.18305957
57	0xbd0e5d85	-0.034757156
58	0x3e43802f	0.19091867
59	0xbd83a258	-0.06427449
60	0xbb9ccb86	-0.004785004
61	0x3b9492bb	0.004534093
62	0x3e696c00	0.22795105
63	0xbc076651	-0.00826414
64	0x3c3a7737	0.011380962
65	0xbd79398d	-0.0608459
66	0xbddf2f9c	-0.10897753
67	0x3d72cd26	0.059277676
68	0x3b07207c	0.0020618727
69	0xbcb16f34	-0.021659471
70	0x3e951cc5	0.29123512
71	0xbd7d1915	-0.0617915
72	0xbe620c40	-0.22074986
73	0x3db3cae6	0.08778934
74	0xbd8ebef0	-0.06970012
75	0xbd2c4f2e	-0.0420677
76	0xbe45f4b9	-0.19331636
77	0xbe199a0a	-0.15000167
78	0x3d8cd685	0.06876854
79	0xbe59bf3c	-0.21264356
80	0x3e8f6468	0.2800629
81	0x3d1361b5	0.035981853
82	0xbd661b60	-0.05617845
83	0x3de2b48d	0.110695936
84	0x3e55947a	0.2085742
85	0xbb6729d2	-0.003527273
86	0xbbdbb29d	-0.006704642
87	0x3d8e1646	0.06937842
88	0xbd15ffb3	-0.036620807
89	0xbd7ebc16	-0.06219109
90	0x3e35de73	0.17760639
91	0xbd597691	-0.05309159
92	0xbdf09066	-0.11746292
93	0xbc3dca22	-0.011583837
94	0xbd91be75	-0.07116405
95	0xbdfa605a	-0.12225409
96	0xb98b942a	-0.00026622537
97	0x3e8feb2e	0.28109115
98	0x3d8dadb0	0.06917894
99	0xbe6ced06	-0.23137292
100	0xbd3da066	-0.046295546
101	0x3e91818e	0.28419155
102	0xbd285420	-0.041095853
103	0xbdb49163	-0.08816793
104	0xbe84adbf	-0.25913808
105	0x3d36eb3f	0.044657942
106	0x3d1de989	0.038552795
107	0x3e37455b	0.17897551
108	0xbc539e3a	-0.012916142
109	0x3cc21f11	0.023696454
110	0x3e0194e5	0.12654455
111	0x3dd4e38c	0.103949636
112	0x3e5027e9	0.20327725
113	0xbc3ca606	-0.011514192
114	0xbe3754ba	-0.17903414
115	0xbda62742	-0.081129566
116	0x3e0fe3e1	0.14051773
117	0xbcfeb2a6	-0.031091046
118	0x3e8ac2e0	0.27101803
119	0xbe311ac3	-0.17295365
120	0x3e412160	0.18860388
121	0xbcbf4360	-0.023347557
122	0x3d55cadb	0.05219541
123	0x3db10ccc	0.08645019
124	0x3dc49c15	0.09600083
125	0xbc1f83a7	-0.009735978
126	0x3e2e70cb	0.17035215
127	0x3e00bf19	0.12572898
128	0x3ddf1274	0.108921915
129	0xbd37044e	-0.04468184
130	0x3e82195f	0.25409982
131	0xbcb675f2	-0.022273038
132	0xbdba2960	-0.09089923
133	0xbd830060	-0.06396556
134	0xbe21210b	-0.15735261
135	0xbda79f1c	-0.081846446
136	0x3d742ca3	0.05961288
137	0xbd5280f9	-0.05139253
138	0x3c919f21	0.017776074
139	0xbe37272c	-0.17886037
140	0x3e3187c6	0.1733695
141	0xbc82307e	-0.015892264
142	0xbd8fd6c2	-0.07023384
143	0xbdff27fe	-0.124588
144	0x3de9e6ea	0.114209965
145	0xbcb5c648	-0.022189274
146	0xbe31a6fb	-0.17348854
147	0x3cbe4747	0.023227347
148	0x3ca3ba30	0.019986242
149	0xbdfbb10d	-0.12289629
150	0xbb49f594	-0.0030816542
151	0x3d1bb3d5	0.038013298
152	0x3d747c29	0.05968872
153	0x3df2197c	0.11821267
154	0x3e1ca10a	0.15295807
155	0xbe3d06be	-0.18459603
156	0xbdb8ce89	-0.090237685
157	0xbdc6e1b1	-0.09711016
158	0x3e5646b3	0.20925407
159	0xbe66791c	-0.22507137
160	0x3d61b546	0.055104516
161	0xbaee3188	-0.001817272
162	0x3cf202a6	0.029542278
163	0xbd289a1b	-0.04116259
164	0x3e045243	0.12922005
165	0x3cb3101c	0.021858267
166	0x3dac0698	0.08399695
167	0xbc53fad2	-0.012938218
168	0x3dd2c1a3	0.102908395
169	0x3cf9233b	0.030412307
170	0xbcc19d5a	-0.023634601
171	0xbc20f407	-0.009823806
172	0xbe81dcb7	-0.25363705
173	0x3d822db8	0.063563764
174	0xbcc7116d	-0.024300301
175	0x3d9c66e7	0.076368146
176	0xbc715dc4	-0.014731828
177	0x3d6f1457	0.058369007
178	0x3b9c38ff	0.0047675367
179	0x3e41f8b7	0.18942533
180	0xbd0e69c5	-0.03476884
181	0xbe0834d4	-0.13301402
182	0xbc564af7	-0.013079396
183	0xbdf52131	-0.119692214
184	0xbe5aa96e	-0.21353695
185	0x3e3aaf48	0.18230927
186	0x3c04bbe4	0.008101437
187	0xbe128de8	-0.14311945
188	0xbdb9c2db	-0.09070369
189	0xbde43a48	-0.11143929
190	0x3ab145f2	0.0013524874
191	0x3d01d03c	0.03169273
192	0xbd984625	-0.07435254
193	0x3e30100c	0.17193621
194	0x3db1a0a1	0.08673216
195	0xbd047950	-0.032342255
196	0x3d31ac21	0.043377046
197	0xbe452240	-0.19251347
198	0xbd7da6e2	-0.06192673
199	0xbe2245fa	-0.15847006
200	0xbd0e62a6	-0.034762047
201	0xbeab9f2f	-0.33519885
202	0xbcde8bc9	-0.027166264
203	0x3d1514f0	0.03639692
204	0xbd811cec	-0.063043445
205	0xbd8aef7c	-0.06783959
206	0xbd7f2927	-0.062295105
207	0xbb8bda9c	-0.0042680036
208	0xbca0f459	-0.019647764
209	0x3d0a7e56	0.03381189
210	0x3dba80f8	0.0910663
211	0x3d906781	0.07050992
212	0x3de0aded	0.10970674
213	0x3d8d0870	0.06886375
214	0xbc55101c	-0.013004329
215	0x3dd2765c	0.102764815
216	0xbd329371	-0.043597642
217	0xbddad632	-0.10685386
218	0x3da60744	0.081068546
219	0x3e0b423b	0.13599484
220	0xbd41f59b	-0.04735337
221	0xbe47c18e	-0.19507429
222	0x3e265412	0.16243008
223	0x3e6cbc25	0.23118646
224	0x3e409b56	0.18809256
225	0x3e0974bb	0.13423435
226	0x3d1a8e04	0.037733093
227	0x3db491fd	0.088169076
228	0x3e359f13	0.17736463
229	0x3e3f82c0	0.18702221
230	0x3c95eb36	0.018300634
231	0xbe25d8bc	-0.16195959
232	0xbdce5fec	-0.100768894
233	0x3e61cdbe	0.2205114
234	0xbdd17304	-0.102270156
235	0x3e431ec1	0.190547
236	0x3d968440	0.073494434
237	0xbd69c588	-0.057073146
238	0x3bae4d5d	0.005319281
239	0x3e6b8a2c	0.23001927
240	0x3bdd35d4	0.0067508016
241	0x3cf745e4	0.030184694
242	0xbd9ca898	-0.07649344
243	0x3e06f7f5	0.13180526
244	0xbe755e7b	-0.23961823
245	0xbd931344	-0.07181409
246	0xbde612f6	-0.11234085
247	0xbdc2ac2a	-0.09505494
248	0xbd141a1a	-0.036157705
249	0x3e97aba3	0.29623136
250	0x3db3a38c	0.087714285
251	0xbc426226	-0.011864221
252	0x3cc74524	0.024324961
253	0xbd16dbb0	-0.036830604
254	0x3ce2df22	0.027694289
255	0xbdfb2ca2	-0.122643724

fc2.weight f4 [128, 256]
0	0xbe21d382	-0.1580334
1	0xbc145f69	-0.009055951
2	0xbd474262	-0.048647292
3	0x3d293028	0.04130569
4	0xbcb7891a	-0.022404242
5	0xbea2e2c6	-0.3181364
6	0x3c972dab	0.018454393
7	0x3e45ef2f	0.19329523
8	0x3cd699e8	0.026196435
9	0xbd799754	-0.060935333
10	0xbe0dd1fc	-0.13849634
11	0x3cdfbd18	0.027311847
12	0x3d902bb6	0.07039587
13	0x3aead382	0.0017915817
14	0x3e34446d	0.17604227
15	0xbe5d2ba7	-0.21598683
16	0x3d5b41ef	0.053529676
17	0x3d49c783	0.049262535
18	0xbc224dc8	-0.00990624
19	0x3dad32a8	0.084569275
20	0xbdcc6b16	-0.099813625
21	0x3bc096aa	0.0058773356
22	0x3e02d5ab	0.1277682
23	0xbd850b4c	-0.06496295
24	0x3d41d211	0.047319476
25	0x3c502c00	0.012705803
26	0x3c3e02b6	0.011597326
27	0xbed2c372	-0.41164738
28	0xbdae6ed2	-0.08517231
29	0x3bce086c	0.006287625
30	0xbd3e4e61	-0.046461467
31	0x3b39e7b1	0.0028366859
32	0xbd3627ba	-0.04447148
33	0xbd5f4acc	-0.05451469
34	0xbdae49bf	-0.0851016
35	0x3e5ce891	0.21573092
36	0x3e8a446d	0.2700533
37	0x3e131acc	0.14365691
38	0xbc780963	-0.015138957
39	0x3d684225	0.056703705
40	0x3e5f8add	0.21830316
41	0xbdc7b31d	-0.0975096
42	0x3dc930dc	0.09823772
43	0xbc8d76e4	-0.017268606
44	0xbddac594	-0.10682216
45	0x3e8f279b	0.27959904
46	0x3df606e0	0.1201303
47	0xbd98ceaf	-0.07461297
48	0x3e5a0175	0.21289618
49	0x3c2f6cfd	0.010707137
50	0x3c341baa	0.010992924
51	0x3d976191	0.07391656
52	0x3d97b622	0.07407786
53	0x3e760386	0.24024782
54	0xbd8c28e8	-0.0684374
55	0x3d544b72	0.051829763
56	0xbe588c3e	-0.21147248
57	0xbebc5436	-0.36782998
58	0xbe65a4e0	-0.22426176
59	0xbb7bd872	-0.0038428572
60	0x3ca389b8	0.01996313
61	0x3da51439	0.08060498
62	0xbee6786b	-0.45013747
63	0x3e36153c	0.17781538
64	0x3da104eb	0.07862266
65	0x3e535b4b	0.20640294
66	0xbe21debe	-0.15807626
67	0xbd804dfa	-0.06264873
68	0x3d895527	0.06705695
69	0x3dcf1dc4	0.10113099
70	0xbe16eb26	-0.1473814
71	0xbeb6e0fc	-0.35718524
72	0x3d64a391	0.05582005
73	0xbe912b6d	-0.28353444
74	0x3d047794	0.0323406
75	0x3de8d169	0.11368067
76	0x3d01d953	0.031701397
77	0xbe39951f	-0.18123291
78	0x3d9ff190	0.07809746
79	0x3e23979a	0.159758
80	0xbd43eb2e	-0.047831707
81	0xbcc10dc2	-0.02356613
82	0x3dc6d733	0.09709015
83	0x3e3007a7	0.17190419
84	0xbe55a2b5	-0.20862849
85	0x3e56f836	0.20993122
86	0xbd3829ae	-0.044961624
87	0x3db77fd9	0.08959932
88	0x3e1340f3	0.14380245
89	0x3d07731b	0.033068758
90	0x3d7a0317	0.061038103
91	0xbcabc0a0	-0.020965874
92	0xbe8c86a8	-0.27446485
93	0x3cd9b54d	0.026575709
94	0xbdd3f65f	-0.10349726
95	0x3dd9e0b3	0.10638561
96	0xbd00151c	-0.03127013
97	0xbe9e1735	-0.3087708
98	0x3e82fe47	0.25584623
99	0x3e26bed2	0.1628373
100	0x3da38919	0.07985134
101	0x3e5af0d2	0.21380928
102	0x3b92bf62	0.004478381
103	0x3d86e6f5	0.0658702
104	0x3dfe4b6d	0.1241673
105	0x3defc6f1	0.11707867
106	0x3e12728d	0.1430151
107	0xbe893cef	-0.268043
108	0x3e32289f	0.17398308
109	0xbe18aa41	-0.14908697
110	0xbe40ba2c	-0.18821019
111	0xbd40fc51	-0.047115628
112	0x3e71493c	0.23563093
113	0xbcdefe8d	-0.027220989
114	0xbddcf4aa	-0.107888535
115	0x3e061db7	0.13097273
116	0x3d065b4c	0.03280191
117	0x3e1f0c25	0.15531977
118	0x3dbcc4e9	0.09217245
119	0xbe0bb311	-0.13642527
120	0xbd8f0565	-0.06983451
121	0x3c7d31e2	0.0154537875
122	0x3d01accb	0.03165893
123	0xbcfee24e	-0.03111377
124	0xbe088b16	-0.13334307
125	0x3e19b41e	0.15010116
126	0xbe677593	-0.22603445
127	0xbd9ae293	-0.07562747
128	0x3dcc8b17	0.09987467
129	0x3e1cd427	0.15315305
130	0x3d94793b	0.072496854
131	0x3d349056	0.044082962
132	0x3d807ddd	0.062740065
133	0xbebd57e3	-0.36981115
134	0x3da7fd94	0.08202663
135	0xbda961af	-0.08270585
136	0xbd8a21c6	-0.06744723
137	0x3db5ea5d	0.08882592
138	0xbc8ed5dd	-0.017435962
139	0xbe330989	-0.17484106
140	0x3dbb5a2d	0.09148059
141	0x3d33340e	0.043750815
142	0x3d99755b	0.07493087
143	0xbddc6800	-0.10762024
144	0xbe67804f	-0.2260754
145	0xbe48d3b9	-0.19612016
146	0xbd9c5949	-0.07634217
147	0x3d5f4d3b	0.054517012
148	0x3e4749e9	0.19461788
149	0xbd2afa10	-0.041742384
150	0x3d34d9bd	0.044152964
151	0x3ce4f640	0.027949452
152	0x3e0c4e07	0.1370164
153	0xbca1012b	-0.019653877
154	0xbbb16a8d	-0.005414313
155	0x3c2bbaac	0.010481518
156	0x3df534ea	0.11972983
157	0x3d5cd4ca	0.05391387
158	0x3e5c59e6	0.21518669
159	0x3cc89503	0.024485117
160	0xbd4022ca	-0.046908177
161	0x3d0adeb7	0.033903804
162	0x3e31fef9	0.1738242
163	0xbd98a9fa	-0.074542955
164	0x3d0a5ce3	0.03377999
165	0x3e67276a	0.22573629
166	0x3e2be748	0.16787446
167	0x3cccfbf2	0.02502248
168	0x3dc5519f	0.096347086
169	0x3cf6263b	0.030047527
170	0xbe1ab3be	-0.15107629
171	0xbe840dfd	-0.25791922
172	0xbda59bee	-0.08086382
173	0xbac724dd	-0.0015193481
174	0x3e116be9	0.1420132
175	0xbdf0f33b	-0.117651425
176	0x3e25e8aa	0.16202036
177	0xbd9b6b11	-0.07588781
178	0x3e129cdd	0.14317651
179	0xbe0b5c6b	-0.13609473
180	0xbd395567	-0.04524746
181	0x3df6d46c	0.12052235
182	0xbcb4a61f	-0.022051869
183	0x3ca826ab	0.02052625
184	0x3dad6ac9	0.08467633
185	0x3d73664f	0.05942374
186	0x3d2609c7	0.04053667
187	0x3d78e33d	0.060763586
188	0xbcbff989	-0.023434417
189	0x3e077d83	0.13231473
190	0xbe0ad030	-0.1355598
191	0xbe1ed862	-0.15512231
192	0xbb139316	-0.002251809
193	0xbd83c0a9	-0.064332314
194	0xbce7c698	-0.028292939
195	0xbd42d2b0	-0.04756421
196	0xbc3aa80f	-0.011392607
197	0xbd34e937	-0.044167724
198	0xbdc27d64	-0.094965726
199	0x3d295023	0.04133619
200	0x3c4e0e08	0.0125765875
201	0x3d12ebbc	0.035869345
202	0x3d5dab04	0.05411817
203	0x3dca58ad	0.09880195
204	0x3dbaf5ef	0.09128939
205	0xbcb15351	-0.021646174
206	0xbd7a1263	-0.06105269
207	0xbd5180fd	-0.051148403
208	0x3bd35243	0.0064490153
209	0xbcbfb966	-0.023403835
210	0x3e6d31a4	0.23163468
211	0x3de1a604	0.11017993
212	0xbd79dc85	-0.06100132
213	0xbe3ee66b	-0.18642585
214	0x3e12e4ba	0.14345065
215	0xbd19bc75	-0.037533242
216	0xbec8aef5	-0.39195982
217	0xbe1a6718	-0.1507839
218	0x3d16516a	0.036698736
219	0xbd200d70	-0.039075315
220	0x3cab7971	0.020931931
221	0x3c17e548	0.0092709735
222	0xbc5e1ef4	-0.0135571845
223	0xbd679616	-0.056539617
224	0x3ddafc36	0.10692637
225	0xbdb2e23e	-0.087345585
226	0xbd385df9	-0.045011494
227	0xbd8e0cec	-0.069360584
228	0xbd344436	-0.044010364
229	0x3de7eb65	0.11324195
230	0xbd09db33	-0.03365631
231	0x3e21b157	0.15790306
232	0xbe39c9f8	-0.18143451
233	0xbe920d03	-0.28525552
234	0x3d05fabf	0.032709833
235	0xbba8bc55	-0.005149404
236	0xbe122357	-0.14271294
237	0xbd33f344	-0.043933168
238	0xbe1b2339	-0.15150155
239	0x3e1e56b4	0.15462762
240	0x3e2be3e2	0.16786149
241	0x3b899082	0.004198135
242	0xbb6442ad	-0.003482978
243	0xbe620099	-0.2207054
244	0x3d6adabb	0.057337504
245	0xbd0f816e	-0.035035543
246	0xbe275325	-0.16340311
247	0xbcf15639	-0.02946006
248	0x3d24787f	0.040153977
249	0x3d1bd49b	0.038044553
250	0x3e2f90c5	0.17145069
251	0x3ca83165	0.020531366
252	0x3c81eb5b	0.015859297
253	0x3e07f3e5	0.13276632
254	0x3cbe2a00	0.023213387
255	0xbd5cdd34	-0.053921893

fc2.bias f4 [128]
0	0x3d962b56	0.073324844
1	0x3d8feca0	0.070275545
2	0x3e15cd69	0.14629139
3	0xbd0ef24c	-0.03489904
4	0x3c434e86	0.011920577
5	0x3c0366aa	0.0080200825
6	0xbcdac36d	-0.026704514
7	0xbd8bdac8	-0.068288386
8	0xbcb45481	-0.02201295
9	0x3d029bc2	0.031886823
10	0xbc3d062f	-0.011537119
11	0xbd77d0d0	-0.060501873
12	0x3de6eb6d	0.11275373
13	0xbe52473f	-0.2053499
14	0xb98e5270	-0.0002714577
15	0xbc3a6520	-0.011376649
16	0x3ca762b7	0.020432813
17	0x3e439792	0.19100788
18	0x3e1c303d	0.15252776
19	0xbe20f919	-0.15720023
20	0x3dc099de	0.09404348
21	0xbd55b267	-0.05217209
22	0xbd67e76b	-0.05661718
23	0x3d219b94	0.03945501
24	0x3ddbada6	0.1072648
25	0xbcc84636	-0.024447542
26	0xbb7fdb2e	-0.0039040553
27	0x3dba3ff4	0.09094229
28	0x3de8a4a4	0.11359528
29	0x3b3515d2	0.0027631414
30	0x3e1bae45	0.15203197
31	0xbce45fa3	-0.027877634
32	0x3e97bd13	0.2963644
33	0xbda117ed	-0.078658916
34	0x3dff8021	0.124756105
35	0x3d08da86	0.033411525
36	0xbdec2d6a	-0.115320995
37	0xb974e886	-0.00023356275
38	0x3d0da381	0.034579758
39	0x3de0d4c2	0.1097808
40	0x3d6ec78b	0.058295768
41	0x3d8775c9	0.066142626
42	0xbdcc6916	-0.09980981
43	0xbd6eb6b1	-0.058279697
44	0xbd9eba09	-0.07750327
45	0xbd835d9a	-0.064143375
46	0xbcdd3251	-0.027001532
47	0x3dbee6ed	0.09321389
48	0xbc5645a9	-0.013078132
49	0xbdd36b5c	-0.103232116
50	0xbd365402	-0.04451371
51	0x3d7b62f7	0.061373677
52	0x3d89d9fc	0.0673103
53	0xbd588d7e	-0.052869312
54	0x3dfc28e2	0.12312485
55	0xbdf7aee8	-0.120939076
56	0xbddebe25	-0.10876111
57	0x3e0b55e1	0.13606979
58	0xbd38af38	-0.045088977
59	0xbdd1d514	-0.102457196
60	0x3ccb3014	0.024803199
61	0xbd13b925	-0.03606524
62	0x3e18638a	0.14881721
63	0xbaa0b8bb	-0.0012262085
64	0x3d281590	0.04103619
65	0x3db176ce	0.08665238
66	0xba717326	-0.0009210579
67	0x3d1a1a1d	0.03762256
68	0x3b137307	0.0022498982
69	0x3dd75dd0	0.1051594
70	0xbc8c1ba8	-0.017103031
71	0xbd7db884	-0.061943546
72	0xbe03e54d	-0.1288044
73	0x3deae5cd	0.11469612
74	0x3c66cb29	0.014086523
75	0x3e25414f	0.16138195
76	0x3ca74b73	0.02042172
77	0xbd274112	-0.04083354
78	0x3dca1c5c	0.0986869
79	0x3d4e25ea	0.050329126
80	0x3cbb869c	0.022891335
81	0xbda6d062	-0.081452146
82	0x3dd09da8	0.101863205
83	0xbe492484	-0.19642836
84	0xbd9f080d	-0.077652074
85	0x3d8d73ba	0.06906839
86	0xbd95b5e0	-0.073100805
87	0xbc933980	-0.017971754
88	0xbba8112d	-0.0051290006
89	0x3d8de5cc	0.06928596
90	0xbdbe3e54	-0.09289232
91	0xbd2eaf55	-0.04264768
92	0xbcf3880f	-0.029727964
93	0x3dd7d6ce	0.105390176
94	0x3c1e3ae7	0.009657598
95	0x3e132852	0.1437085
96	0x3bd1afbc	0.006399123
97	0x3cf1b180	0.029503584
98	0x3cace3af	0.021104662
99	0x3dc2f638	0.09519619
100	0xbcd79105	-0.026314268
101	0x3e32d696	0.1746467
102	0x3e0700b8	0.13183868
103	0x3c414fbb	0.011798794
104	0xbc1b8303	-0.009491685
105	0x3ead56a8	0.33855176
106	0xbe0b325a	-0.13593426
107	0x3e1132e7	0.14179574
108	0x3d2dfc5b	0.042476993
109	0x3e5e1cfb	0.21690743
110	0x3e47fd2e	0.19530174
111	0xbd2d4b71	-0.042308275
112	0xbcadc174	-0.02121041
113	0x3cde74b2	0.027155254
114	0x3c6d960f	0.014501109
115	0xbd5015e0	-0.05080211
116	0xbd666f4c	-0.056258485
117	0xbd15c4e4	-0.036564723
118	0xbdba51ae	-0.090976104
119	0x3dceec62	0.1010368
120	0xbce27d79	-0.02764772
121	0xbd25176c	-0.04030554
122	0x3d8e2566	0.06940727
123	0xbd4ad43f	-0.04951882
124	0x3d24edaa	0.040265717
125	0xbc2705ed	-0.010194284
126	0x3d402377	0.046908822
127	0xbd500fc5	-0.05079629

fc3.weight f4 [47, 128]
0	0xbe271206	-0.16315469
1	0xbda64199	-0.081179805
2	0xbe07be2c	-0.13256139
3	0x3d1ee39a	0.038791277
4	0xbea9da91	-0.33174565
5	0xbe6f4f62	-0.23370126
6	0xbb98af8b	-0.004659598
7	0x3e224851	0.15847899
8	0x3e08ea47	0.1337062
9	0xbec88a68	-0.39168096
10	0xbdc33452	-0.09531464
11	0x3cd277ec	0.025691949
12	0x3da591ec	0.08084473
13	0x3d917fbf	0.07104444
14	0x3dfb40a3	0.12268188
15	0xbdb8ae36	-0.09017603
16	0x3c9879c5	0.018612752
17	0xbe679b02	-0.22617725
18	0xbc5b8702	-0.013398888
19	0x3daf7cdf	0.08568739
20	0xbe2c1465	-0.16804655
21	0xbe7c0061	-0.2460952
22	0x3d4ec88d	0.05048423
23	0x3da24a1a	0.0792429
24	0xbe88dadf	-0.26729485
25	0xbe114b68	-0.14188921
26	0xbe222a13	-0.15836363
27	0x3dcce0fe	0.10003851
28	0xbd2aaaf3	-0.041666936
29	0x3d4d8d9a	0.05018387
30	0x3d19906b	0.037491243
31	0x3ddbeee0	0.10738921
32	0xbef0b194	-0.4701048
33	0xbdf79bb2	-0.120902434
34	0xbc1dc1d8	-0.0096287355
35	0xbda0a5ef	-0.07844149
36	0xbcba38e9	-0.022732215
37	0x3df94bb6	0.12172644
38	0x3c76db93	0.015066999
39	0x3d01aab2	0.03165693
40	0xbe005dfa	-0.12535849
41	0xbd08a476	-0.033359967
42	0xbdcfb2e4	-0.101415426
43	0xbc501c92	-0.012702124
44	0xba24b6a3	-0.00062833185
45	0x3de7bc47	0.11315208
46	0x3d7ff0d1	0.06248552
47	0xbd90633c	-0.070501775
48	0xbd277d0b	-0.040890735
49	0x3d9ad7f1	0.07560719
50	0x3c9c7028	0.019096449
51	0xbde6dc87	-0.11272531
52	0x3d126686	0.035742305
53	0x3d516ed9	0.051131103
54	0x3d3f9013	0.04676826
55	0xbe13cda7	-0.14433919
56	0xbe4b7038	-0.19867027
57	0xbecd628c	-0.40114248
58	0xbdd02132	-0.101625815
59	0xbd81677a	-0.06318565
60	0x3e346624	0.17617089
61	0x3d39e16f	0.045381006
62	0xbe6ca9b3	-0.2311161
63	0xbe1b2854	-0.15152103
64	0xbe843586	-0.25822085
65	0xbd495a34	-0.04915829
66	0xbe025230	-0.12726665
67	0x3d327b66	0.043574713
68	0x3ca2e26c	0.019883357
69	0xbdc78ca3	-0.09743621
70	0x3d5cac36	0.05387517
71	0xbced5302	-0.028970245
72	0xbe96df6a	-0.29467326
73	0x3d6dd8df	0.058068153
74	0xbe83df17	-0.25756142
75	0xbda02ae9	-0.078206845
76	0x3cff5cb7	0.03117214
77	0xbecdfd46	-0.40232295
78	0x3d85b2d5	0.0652825
79	0xbeb9607b	-0.3620642
80	0x3d837022	0.06417872
81	0xbd063229	-0.03276268
82	0x3d32fea3	0.04369987
83	0xbdc9f3df	-0.09860968
84	0xbc943cc8	-0.018095389
85	0xbe3a4231	-0.18189313
86	0x3d38a021	0.045074586
87	0xbb2cdd55	-0.0026377041
88	0x3cd91417	0.026498837
89	0xbdd8c49a	-0.10584374
90	0xbedf3863	-0.43597707
91	0xbc745e9a	-0.014915133
92	0x3d48de39	0.049040053
93	0xbdb394b8	-0.087686
94	0x3a5e327e	0.0008476152
95	0xbe7cc51d	-0.24684568
96	0x3e070934	0.13187104
97	0x3ca850be	0.020546313
98	0x3df54dc3	0.119777225
99	0x3d1fcb38	0.039012164
100	0xbe62d680	-0.22152138
101	0x3df76915	0.1208059
102	0x3d6d76ed	0.057974745
103	0x3d80be47	0.062862925
104	0xbe8593e2	-0.26089388
105	0xbe114921	-0.14188053
106	0xbd2dbbbd	-0.04241537
107	0xbdb8a374	-0.09015551
108	0xbeab7e9c	-0.33495033
109	0xbea50c32	-0.32235867
110	0x3de0d466	0.10978012
111	0x3c708233	0.014679479
112	0xbd337879	-0.043816064
113	0x3d46ddb5	0.04855128
114	0xbe2d6e5c	-0.1693663
115	0xbda559d8	-0.08073777
116	0xbc8c2d69	-0.017111497
117	0xbe6602d1	-0.22462012
118	0x3d0a45bf	0.03375792
119	0xbe40e286	-0.18836412
120	0xbdb4ff24	-0.08837727
121	0xbd1478f8	-0.036248177
122	0xbcfcad41	-0.030844333
123	0xbc81ff42	-0.015868787
124	0xbb8f355b	-0.004370374
125	0xbe90194f	-0.2814431
126	0xbd1bb0aa	-0.038010277
127	0xbebfcf2e	-0.37462753
128	0x3dbfa4c3	0.09357598
129	0x3db8fc66	0.09032516
130	0x3d49fd04	0.04931356
131	0xbd898497	-0.06714743
132	0xbe0bbfd5	-0.13647397
133	0xbd94491e	-0.072405085
134	0x3da02cca	0.07821043
135	0xbdab6ca0	-0.08370328
136	0x3d4e5332	0.05037231
137	0xbd17a960	-0.037026763
138	0xbe31063d	-0.17287536
139	0xbcc01f3e	-0.023452397
140	0xbd79f0a9	-0.061020527
141	0x3dd8e423	0.105903886
142	0xbeb3a2cf	-0.3508515
143	0x3cfced39	0.030874835
144	0x3c2de5f2	0.010613905
145	0x3d9a2eb9	0.07528443
146	0x3dc3a9cb	0.0955387
147	0x3dc031fc	0.09384534
148	0xbf0ed239	-0.55789524
149	0x3e18a1c2	0.14905456
150	0xbbe48a97	-0.006974529
151	0xbeb7d862	-0.35907274
152	0xbda3f495	-0.08005635
153	0xbe31dbf1	-0.17369057
154	0x3da6e8d8	0.0814988
155	0xbe81a674	-0.25322306
156	0xbe710eb2	-0.23540762
157	0x3d8cd74c	0.06877002
158	0x3de179aa	0.11009534
159	0xbe55f536	-0.20894322
160	0xbe0220cb	-0.12707822
161	0x3def199c	0.116748065
162	0x3de84c38	0.113426626
163	0xbd9b28ea	-0.07576163
164	0x3e0e0830	0.13870311
165	0x3da3df68	0.08001596
166	0xbaa1b21a	-0.0012336404
167	0xbea26661	-0.31718734
168	0x3d097a04	0.03356363
169	0x3d63df20	0.05563271
170	0xbca3bab3	-0.019986486
171	0x3ba92fba	0.00516316
172	0xbc0bffda	-0.0085448865
173	0x3dbd861d	0.09254096
174	0x3d92d80c	0.07170114
175	0x3d9e2a82	0.077229515
176	0xbc94ae9d	-0.018149668
177	0xbd6ae404	-0.05734636
178	0xbda3b56f	-0.0799359
179	0x3c60ca01	0.0137200365
180	0xbe65f22b	-0.22455661
181	0xbe281d05	-0.1641732
182	0xbd71a6b9	-0.05899689
183	0xbe81ffa0	-0.2539034
184	0xbc5ab8e7	-0.013349748
185	0xbded2213	-0.11578765
186	0xbe65199b	-0.22373049
187	0xbd28e84f	-0.04123717
188	0xbd80ab5e	-0.06282686
189	0x3dda9c65	0.10674361
190	0xbe9148ad	-0.2837576
191	0xbea90895	-0.3301436
192	0x3e16237f	0.14661978
193	0xbc8e9163	-0.01740331
194	0x3df06702	0.11738397
195	0x3c30b5ae	0.010785503
196	0x3d6e9736	0.058249675
197	0xbd009e01	-0.031400684
198	0x3dd80688	0.10548121
199	0xbda68f35	-0.08132783
200	0x3c5dbe57	0.01353415
201	0x3e1fa34c	0.15589637
202	0xbd8d0ac4	-0.06886819
203	0x3c5e0b18	0.01355245
204	0xbe27f77f	-0.16403006
205	0x3c0923ce	0.008370353
206	0xbe83a287	-0.25709936
207	0xbe75d7a5	-0.24008043
208	0x3d2cba9c	0.042170152
209	0xbd2cf7c8	-0.04222849
210	0x3daa10fd	0.083040215
211	0xbd803d4e	-0.06261693
212	0xbdcaa3c1	-0.09894515
213	0xbe582fd3	-0.21111993
214	0x3d88fb0c	0.066885084
215	0x3d87bdb7	0.06627982
216	0xbc37e10d	-0.01122309
217	0xbeb84fce	-0.35998386
218	0xbdc435d0	-0.095805764
219	0x3dc97fef	0.098388545
220	0xbe77ecc7	-0.24211417
221	0xbde09f20	-0.10967851
222	0xbb54030b	-0.0032350447
223	0xbdba4a8d	-0.09096251
224	0x3cd708a6	0.026249241
225	0xbe041d4c	-0.12901801
226	0xbe1c2184	-0.1524716
227	0xbdc9e7bf	-0.09858655
228	0xbcf5c5ef	-0.030001609
229	0xbebcccb3	-0.36874923
230	0xbd49f2bb	-0.04930375
231	0x3dd16b5f	0.102255575
232	0x3d57b3bb	0.05266164
233	0xbefe3fda	-0.4965809
234	0xbe977e92	-0.29588753
235	0x3e02a13c	0.12756819
236	0x3d7cb7de	0.061698787
237	0xbca0f2e4	-0.01964707
238	0xbe2b69a8	-0.16739523
239	0xbe660fc0	-0.22466946
240	0x3d0d850c	0.03455071
241	0xbecabd26	-0.39597434
242	0x3b537c51	0.0032270143
243	0x3d769457	0.06020006
244	0xbc3fec24	-0.011714015
245	0xbe2c6d9b	-0.16838686
246	0xbdc8dc95	-0.09807698
247	0x3cc4829d	0.023988063
248	0x3d0493c2	0.032367475
249	0x3cc92569	0.024553971
250	0x3e0cf149	0.13763918
251	0xbd8c307c	-0.06845185
252	0xbd5ce9cd	-0.053933907
253	0x3b7cafb5	0.0038556878
254	0xbec06450	-0.37576532
255	0x3de21f9a	0.11041184

fc3.bias f4 [47]
0	0x3d7f9487	0.062397506
1	0xbd185d2f	-0.03719824
2	0x3d2dea9e	0.042460077
3	0xbdecfa72	-0.11571206
4	0xbe34f4ff	-0.17671584
5	0x3c0dc60c	0.008653175
6	0xbd9feb3c	-0.07808539
7	0xbdede9f7	-0.11616891
8	0x3e4b5803	0.19857793
9	0xbd7b995b	-0.061425548
10	0xbcb8d978	-0.022564635
11	0x3de5adef	0.11214816
12	0xbbaa5e9d	-0.005199267
13	0x3decd4b0	0.115640044
14	0xbdace37c	-0.08441827
15	0x3e178f4f	0.14800762
16	0xbbcb85c9	-0.006211017
17	0x3df8d880	0.12150669
18	0xbe1e0cd3	-0.1543458
19	0x3d4ac50e	0.049504332
20	0x3d688e80	0.056776524
21	0x3e23c45f	0.15992878
22	0x3d891fc9	0.06695516
23	0x3da42c3a	0.08016248
24	0xbcbced9c	-0.02306252
25	0x3de85467	0.113442235
26	0x3e23e5d2	0.16005638
27	0xbc15ce5b	-0.009143437
28	0x3c4becf3	0.01244663
29	0x3c843607	0.016139043
30	0xbc614110	-0.013748422
31	0xbd1f9a74	-0.038965657
32	0x3e520827	0.20510922
33	0xbd199ef9	-0.037505124
34	0x3e1c18f4	0.15243894
35	0xbd058f42	-0.032607324
36	0xbd72495e	-0.059152
37	0xbded771f	-0.11594986
38	0xbd48d829	-0.04903427
39	0x3d995c31	0.07488287
40	0xbe086889	-0.13321127
41	0xbdadcfbb	-0.08486887
42	0x3c1bde7d	0.009513495
43	0xbe0cb342	-0.13740256
44	0xbe0bdde5	-0.13658865
45	0xbe93ad7d	-0.288433
46	0xbcef4c8b	-0.029211303
